…
(3551, 3148)
(3551, 1)
{0: 0.9640040931800398, 1: 1.038788350522151}
Model: "model"
__________________________________________________________________________________________________
Layer (type)                    Output Shape         Param #     Connected to                     
==================================================================================================
input_1 (InputLayer)            [(None, 3148)]       0                                            
__________________________________________________________________________________________________
reshape (Reshape)               (None, 3148, 1)      0           input_1[0][0]                    
__________________________________________________________________________________________________
conv1d (Conv1D)                 (None, 3145, 32)     160         reshape[0][0]                    
__________________________________________________________________________________________________
batch_normalization (BatchNorma (None, 3145, 32)     128         conv1d[0][0]                     
__________________________________________________________________________________________________
max_pooling1d (MaxPooling1D)    (None, 1048, 32)     0           batch_normalization[0][0]        
__________________________________________________________________________________________________
conv1d_1 (Conv1D)               (None, 1045, 32)     4128        max_pooling1d[0][0]              
__________________________________________________________________________________________________
batch_normalization_1 (BatchNor (None, 1045, 32)     128         conv1d_1[0][0]                   
__________________________________________________________________________________________________
max_pooling1d_1 (MaxPooling1D)  (None, 348, 32)      0           batch_normalization_1[0][0]      
__________________________________________________________________________________________________
input_2 (InputLayer)            [(None, 3148)]       0                                            
__________________________________________________________________________________________________
conv1d_2 (Conv1D)               (None, 345, 32)      4128        max_pooling1d_1[0][0]            
__________________________________________________________________________________________________
token_and_position_embedding (T (None, 3148, 192)    610176      input_2[0][0]                    
__________________________________________________________________________________________________
batch_normalization_2 (BatchNor (None, 345, 32)      128         conv1d_2[0][0]                   
__________________________________________________________________________________________________
transformer_block (TransformerB (None, 3148, 192)    198464      token_and_position_embedding[0][0
__________________________________________________________________________________________________
max_pooling1d_2 (MaxPooling1D)  (None, 115, 32)      0           batch_normalization_2[0][0]      
__________________________________________________________________________________________________
batch_normalization_3 (BatchNor (None, 3148, 192)    768         transformer_block[0][0]          
__________________________________________________________________________________________________
flatten (Flatten)               (None, 3680)         0           max_pooling1d_2[0][0]            
__________________________________________________________________________________________________
global_max_pooling1d (GlobalMax (None, 192)          0           batch_normalization_3[0][0]      
__________________________________________________________________________________________________
concatenate (Concatenate)       (None, 3872)         0           flatten[0][0]                    
                                                                 global_max_pooling1d[0][0]       
__________________________________________________________________________________________________
dropout_2 (Dropout)             (None, 3872)         0           concatenate[0][0]                
__________________________________________________________________________________________________
dense_6 (Dense)                 (None, 200)          774600      dropout_2[0][0]                  
__________________________________________________________________________________________________
dense_7 (Dense)                 (None, 1)            201         dense_6[0][0]                    
==================================================================================================
Total params: 1,593,009
Trainable params: 1,592,433
Non-trainable params: 576
__________________________________________________________________________________________________
Train on 32030 samples, validate on 3551 samples
Epoch 1/20
   32/32030 [.......
…
